2023-10-03 12:39:44,588 - INFO - Testing image: ./test_images/cautleya_spicata.jpg
2023-10-03 12:39:44,588 - INFO - Parameters:
image_path:  ./test_images/cautleya_spicata.jpg
Model:  image_classifier_model.h5
Top K:  5
Category Names:  label_map.json
Loading model...
..........................................
Summary of loaded model:
Model: "sequential_2"
_________________________________________________________________
 Layer (type)                Output Shape              Param #   
=================================================================
 keras_layer (KerasLayer)    (None, 1280)              2257984   
                                                                 
 batch_normalization_8 (Bat  (None, 1280)              5120      
 chNormalization)                                                
                                                                 
 dense_10 (Dense)            (None, 512)               655872    
                                                                 
 dropout_8 (Dropout)         (None, 512)               0         
                                                                 
 batch_normalization_9 (Bat  (None, 512)               2048      
 chNormalization)                                                
                                                                 
 dense_11 (Dense)            (None, 256)               131328    
                                                                 
 dropout_9 (Dropout)         (None, 256)               0         
                                                                 
 batch_normalization_10 (Ba  (None, 256)               1024      
 tchNormalization)                                               
                                                                 
 dense_12 (Dense)            (None, 128)               32896     
                                                                 
 dropout_10 (Dropout)        (None, 128)               0         
                                                                 
 batch_normalization_11 (Ba  (None, 128)               512       
 tchNormalization)                                               
                                                                 
 dense_13 (Dense)            (None, 64)                8256      
                                                                 
 dropout_11 (Dropout)        (None, 64)                0         
                                                                 
 dense_14 (Dense)            (None, 102)               6630      
                                                                 
=================================================================
Total params: 3101670 (11.83 MB)
Trainable params: 839334 (3.20 MB)
Non-trainable params: 2262336 (8.63 MB)
_________________________________________________________________
..........................................

1/1 [==============================] - ETA: 0s
…
